…
&lt;pre class=&quot;grvsc-container one-dark-pro&quot; data-language=&quot;&quot; data-index=&quot;3&quot;&gt;&lt;code class=&quot;grvsc-code&quot;&gt;&lt;span class=&quot;grvsc-line&quot;&gt;&lt;span class=&quot;grvsc-source&quot;&gt;--------------------Custom VGG16--------------------&lt;/span&gt;&lt;/span&gt;
&lt;span class=&quot;grvsc-line&quot;&gt;&lt;span class=&quot;grvsc-source&quot;&gt;&lt;/span&gt;&lt;/span&gt;
&lt;span class=&quot;grvsc-line&quot;&gt;&lt;span class=&quot;grvsc-source&quot;&gt;        Layer (type)               Output Shape         Param #&lt;/span&gt;&lt;/span&gt;
&lt;span class=&quot;grvsc-line&quot;&gt;&lt;span class=&quot;grvsc-source&quot;&gt;================================================================&lt;/span&gt;&lt;/span&gt;
&lt;span class=&quot;grvsc-line&quot;&gt;&lt;span class=&quot;grvsc-source&quot;&gt;            Conv2d-1         [-1, 64, 224, 224]           1,792&lt;/span&gt;&lt;/span&gt;
&lt;span class=&quot;grvsc-line&quot;&gt;&lt;span class=&quot;grvsc-source&quot;&gt;              ReLU-2         [-1, 64, 224, 224]               0&lt;/span&gt;&lt;/span&gt;
&lt;span class=&quot;grvsc-line&quot;&gt;&lt;span class=&quot;grvsc-source&quot;&gt;            Conv2d-3         [-1, 64, 224, 224]          36,928&lt;/span&gt;&lt;/span&gt;
&lt;span class=&quot;grvsc-line&quot;&gt;&lt;span class=&quot;grvsc-source&quot;&gt;              ReLU-4         [-1, 64, 224, 224]               0&lt;/span&gt;&lt;/span&gt;
&lt;span class=&quot;grvsc-line&quot;&gt;&lt;span class=&quot;grvsc-source&quot;&gt;         MaxPool2d-5         [-1, 64, 112, 112]               0&lt;/span&gt;&lt;/span&gt;
&lt;span class=&quot;grvsc-line&quot;&gt;&lt;span class=&quot;grvsc-source&quot;&gt;            Conv2d-6        [-1, 128, 112, 112]          73,856&lt;/span&gt;&lt;/span&gt;
&lt;span class=&quot;grvsc-line&quot;&gt;&lt;span class=&quot;grvsc-source&quot;&gt;              ReLU-7        [-1, 128, 112, 112]               0&lt;/span&gt;&lt;/span&gt;
&lt;span class=&quot;grvsc-line&quot;&gt;&lt;span class=&quot;grvsc-source&quot;&gt;            Conv2d-8        [-1, 128, 112, 112]         147,584&lt;/span&gt;&lt;/span&gt;
&lt;span class=&quot;grvsc-line&quot;&gt;&lt;span class=&quot;grvsc-source&quot;&gt;              ReLU-9        [-1, 128, 112, 112]               0&lt;/span&gt;&lt;/span&gt;
&lt;span class=&quot;grvsc-line&quot;&gt;&lt;span class=&quot;grvsc-source&quot;&gt;        MaxPool2d-10          [-1, 128, 56, 56]               0&lt;/span&gt;&lt;/span&gt;
&lt;span class=&quot;grvsc-line&quot;&gt;&lt;span class=&quot;grvsc-source&quot;&gt;           Conv2d-11          [-1, 256, 56, 56]         295,168&lt;/span&gt;&lt;/span&gt;
&lt;span class=&quot;grvsc-line&quot;&gt;&lt;span class=&quot;grvsc-source&quot;&gt;             ReLU-12          [-1, 256, 56, 56]               0&lt;/span&gt;&lt;/span&gt;
&lt;span class=&quot;grvsc-line&quot;&gt;&lt;span class=&quot;grvsc-source&quot;&gt;           Conv2d-13          [-1, 256, 56, 56]         590,080&lt;/span&gt;&lt;/span&gt;
&lt;span class=&quot;grvsc-line&quot;&gt;&lt;span class=&quot;grvsc-source&quot;&gt;             ReLU-14          [-1, 256, 56, 56]               0&lt;/span&gt;&lt;/span&gt;
&lt;span class=&quot;grvsc-line&quot;&gt;&lt;span class=&quot;grvsc-source&quot;&gt;           Conv2d-15          [-1, 256, 56, 56]         590,080&lt;/span&gt;&lt;/span&gt;
&lt;span class=&quot;grvsc-line&quot;&gt;&lt;span class=&quot;grvsc-source&quot;&gt;             ReLU-16          [-1, 256, 56, 56]               0&lt;/span&gt;&lt;/span&gt;
&lt;span class=&quot;grvsc-line&quot;&gt;&lt;span class=&quot;grvsc-source&quot;&gt;        MaxPool2d-17          [-1, 256, 28, 28]               0&lt;/span&gt;&lt;/span&gt;
&lt;span class=&quot;grvsc-line&quot;&gt;&lt;span class=&quot;grvsc-source&quot;&gt;           Conv2d-18          [-1, 512, 28, 28]       1,180,160&lt;/span&gt;&lt;/span&gt;
&lt;span class=&quot;grvsc-line&quot;&gt;&lt;span class=&quot;grvsc-source&quot;&gt;             ReLU-19          [-1, 512, 28, 28]               0&lt;/span&gt;&lt;/span&gt;
&lt;span class=&quot;grvsc-line&quot;&gt;&lt;span class=&quot;grvsc-source&quot;&gt;           Conv2d-20          [-1, 512, 28, 28]       2,359,808&lt;/span&gt;&lt;/span&gt;
&lt;span class=&quot;grvsc-line&quot;&gt;&lt;span class=&quot;grvsc-source&quot;&gt;             ReLU-21          [-1, 512, 28, 28]               0&lt;/span&gt;&lt;/span&gt;
&lt;span class=&quot;grvsc-line&quot;&gt;&lt;span class=&quot;grvsc-source&quot;&gt;           Conv2d-22          [-1, 512, 28, 28]       2,359,808&lt;/span&gt;&lt;/span&gt;
&lt;span class=&quot;grvsc-line&quot;&gt;&lt;span class=&quot;grvsc-source&quot;&gt;             ReLU-23          [-1, 512, 28, 28]               0&lt;/span&gt;&lt;/span&gt;
&lt;span class=&quot;grvsc-line&quot;&gt;&lt;span class=&quot;grvsc-source&quot;&gt;        MaxPool2d-24          [-1, 512, 14, 14]               0&lt;/span&gt;&lt;/span&gt;
&lt;span class=&quot;grvsc-line&quot;&gt;&lt;span class=&quot;grvsc-source&quot;&gt;           Conv2d-25          [-1, 512, 14, 14]       2,359,808&lt;/span&gt;&lt;/span&gt;
&lt;span class=&quot;grvsc-line&quot;&gt;&lt;span class=&quot;grvsc-source&quot;&gt;             ReLU-26          [-1, 512, 14, 14]               0&lt;/span&gt;&lt;/span&gt;
&lt;span class=&quot;grvsc-line&quot;&gt;&lt;span class=&quot;grvsc-source&quot;&gt;           Conv2d-27          [-1, 512, 14, 14]       2,359,808&lt;/span&gt;&lt;/span&gt;
&lt;span class=&quot;grvsc-line&quot;&gt;&lt;span class=&quot;grvsc-source&quot;&gt;             ReLU-28          [-1, 512, 14, 14]               0&lt;/span&gt;&lt;/span&gt;
&lt;span class=&quot;grvsc-line&quot;&gt;&lt;span class=&quot;grvsc-source&quot;&gt;           Conv2d-29          [-1, 512, 14, 14]       2,359,808&lt;/span&gt;&lt;/span&gt;
&lt;span class=&quot;grvsc-line&quot;&gt;&lt;span class=&quot;grvsc-source&quot;&gt;             ReLU-30          [-1, 512, 14, 14]               0&lt;/span&gt;&lt;/span&gt;
&lt;span class=&quot;grvsc-line&quot;&gt;&lt;span class=&quot;grvsc-source&quot;&gt;        MaxPool2d-31            [-1, 512, 7, 7]               0&lt;/span&gt;&lt;/span&gt;
&lt;span class=&quot;grvsc-line&quot;&gt;&lt;span class=&quot;grvsc-source&quot;&gt;           Linear-32                 [-1, 4096]     102,764,544&lt;/span&gt;&lt;/span&gt;
&lt;span class=&quot;grvsc-line&quot;&gt;&lt;span class=&quot;grvsc-source&quot;&gt;          Dropout-33                 [-1, 4096]               0&lt;/span&gt;&lt;/span&gt;
&lt;span class=&quot;grvsc-line&quot;&gt;&lt;span class=&quot;grvsc-source&quot;&gt;             ReLU-34                 [-1, 4096]               0&lt;/span&gt;&lt;/span&gt;
&lt;span class=&quot;grvsc-line&quot;&gt;&lt;span class=&quot;grvsc-source&quot;&gt;           Linear-35                 [-1, 4096]      16,781,312&lt;/span&gt;&lt;/span&gt;
&lt;span class=&quot;grvsc-line&quot;&gt;&lt;span class=&quot;grvsc-source&quot;&gt;          Dropout-36                 [-1, 4096]               0&lt;/span&gt;&lt;/span&gt;
&lt;span class=&quot;grvsc-line&quot;&gt;&lt;span class=&quot;grvsc-source&quot;&gt;             ReLU-37                 [-1, 4096]               0&lt;/span&gt;&lt;/span&gt;
&lt;span class=&quot;grvsc-line&quot;&gt;&lt;span class=&quot;grvsc-source&quot;&gt;           Linear-38                 [-1, 1000]       4,097,000&lt;/span&gt;&lt;/span&gt;
&lt;span class=&quot;grvsc-line&quot;&gt;&lt;span class=&quot;grvsc-source&quot;&gt;================================================================&lt;/span&gt;&lt;/span&gt;
&lt;span class=&quot;grvsc-line&quot;&gt;&lt;span class=&quot;grvsc-source&quot;&gt;Total params: 138,357,544&lt;/span&gt;&lt;/span&gt;
&lt;span class=&quot;grvsc-line&quot;&gt;&lt;span class=&quot;grvsc-source&quot;&gt;Trainable params: 138,357,544&lt;/span&gt;&lt;/span&gt;
…
