…
vsc-line\"><span class=\"grvsc-source\">--------------------Custom VGG16--------------------</span></span>\n<span class=\"grvsc-line\"><span class=\"grvsc-source\">----------------------------------------------------------------</span></span>\n<span class=\"grvsc-line\"><span class=\"grvsc-source\">        Layer (type)               Output Shape         Param #</span></span>\n<span class=\"grvsc-line\"><span class=\"grvsc-source\">================================================================</span></span>\n<span class=\"grvsc-line\"><span class=\"grvsc-source\">            Conv2d-1         [-1, 64, 224, 224]           1,792</span></span>\n<span class=\"grvsc-line\"><span class=\"grvsc-source\">              ReLU-2         [-1, 64, 224, 224]               0</span></span>\n<span class=\"grvsc-line\"><span class=\"grvsc-source\">            Conv2d-3         [-1, 64, 224, 224]          36,928</span></span>\n<span class=\"grvsc-line\"><span class=\"grvsc-source\">              ReLU-4         [-1, 64, 224, 224]               0</span></span>\n<span class=\"grvsc-line\"><span class=\"grvsc-source\">         MaxPool2d-5         [-1, 64, 112, 112]               0</span></span>\n<span class=\"grvsc-line\"><span class=\"grvsc-source\">            Conv2d-6        [-1, 128, 112, 112]          73,856</span></span>\n<span class=\"grvsc-line\"><span class=\"grvsc-source\">              ReLU-7        [-1, 128, 112, 112]               0</span></span>\n<span class=\"grvsc-line\"><span class=\"grvsc-source\">            Conv2d-8        [-1, 128, 112, 112]         147,584</span></span>\n<span class=\"grvsc-line\"><span class=\"grvsc-source\">              ReLU-9        [-1, 128, 112, 112]               0</span></span>\n<span class=\"grvsc-line\"><span class=\"grvsc-source\">        MaxPool2d-10          [-1, 128, 56, 56]               0</span></span>\n<span class=\"grvsc-line\"><span class=\"grvsc-source\">           Conv2d-11          [-1, 256, 56, 56]         295,168</span></span>\n<span class=\"grvsc-line\"><span class=\"grvsc-source\">             ReLU-12          [-1, 256, 56, 56]               0</span></span>\n<span class=\"grvsc-line\"><span class=\"grvsc-source\">           Conv2d-13          [-1, 256, 56, 56]         590,080</span></span>\n<span class=\"grvsc-line\"><span class=\"grvsc-source\">             ReLU-14          [-1, 256, 56, 56]               0</span></span>\n<span class=\"grvsc-line\"><span class=\"grvsc-source\">           Conv2d-15          [-1, 256, 56, 56]         590,080</span></span>\n<span class=\"grvsc-line\"><span class=\"grvsc-source\">             ReLU-16          [-1, 256, 56, 56]               0</span></span>\n<span class=\"grvsc-line\"><span class=\"grvsc-source\">        MaxPool2d-17          [-1, 256, 28, 28]               0</span></span>\n<span class=\"grvsc-line\"><span class=\"grvsc-source\">           Conv2d-18          [-1, 512, 28, 28]       1,180,160</span></span>\n<span class=\"grvsc-line\"><span class=\"grvsc-source\">             ReLU-19          [-1, 512, 28, 28]               0</span></span>\n<span class=\"grvsc-line\"><span class=\"grvsc-source\">           Conv2d-20          [-1, 512, 28, 28]       2,359,808</span></span>\n<span class=\"grvsc-line\"><span class=\"grvsc-source\">             ReLU-21          [-1, 512, 28, 28]               0</span></span>\n<span class=\"grvsc-line\"><span class=\"grvsc-source\">           Conv2d-22          [-1, 512, 28, 28]       2,359,808</span></span>\n<span class=\"grvsc-line\"><span class=\"grvsc-source\">             ReLU-23          [-1, 512, 28, 28]               0</span></span>\n<span class=\"grvsc-line\"><span class=\"grvsc-source\">        MaxPool2d-24          [-1, 512, 14, 14]               0</span></span>\n<span class=\"grvsc-line\"><span class=\"grvsc-source\">           Conv2d-25          [-1, 512, 14, 14]       2,359,808</span></span>\n<span class=\"grvsc-line\"><span class=\"grvsc-source\">             ReLU-26          [-1, 512, 14, 14]               0</span></span>\n<span class=\"grvsc-line\"><span class=\"grvsc-source\">           Conv2d-27          [-1, 512, 14, 14]       2,359,808</span></span>\n<span class=\"grvsc-line\"><span class=\"grvsc-source\">             ReLU-28          [-1, 512, 14, 14]               0</span></span>\n<span class=\"grvsc-line\"><span class=\"grvsc-source\">           Conv2d-29          [-1, 512, 14, 14]       2,359,808</span></span>\n<span class=\"grvsc-line\"><span class=\"grvsc-source\">             ReLU-30          [-1, 512, 14, 14]               0</span></span>\n<span class=\"grvsc-line\"><span class=\"grvsc-source\">        MaxPool2d-31            [-1, 512, 7, 7]               0</span></span>\n<span class=\"grvsc-line\"><span class=\"grvsc-source\">           Linear-32                 [-1, 4096]     102,764,544</span></span>\n<span class=\"grvsc-line\"><span class=\"grvsc-source\">          Dropout-33                 [-1, 4096]               0</span></span>\n<span class=\"grvsc-line\"><span class=\"grvsc-source\">             ReLU-34                 [-1, 4096]               0</span></span>\n<span class=\"grvsc-line\"><span class=\"grvsc-source\">           Linear-35                 [-1, 4096]      16,781,312</span></span>\n<span class=\"grvsc-line\"><span class=\"grvsc-source\">          Dropout-36                 [-1, 4096]               0</span></span>\n<span class=\"grvsc-line\"><span class=\"grvsc-source\">             ReLU-37                 [-1, 4096]               0</span></span>\n<span class=\"grvsc-line\"><span class=\"grvsc-source\">           Linear-38                 [-1, 1000]       4,097,000</span></span>\n<span class=\"grvsc-line\"><span class=\"grvsc-source\">================================================================</span></span>\n<span class=\"grvsc-line\"><span class=\"grvsc-source\">Total params: 138,357,544</span></span>\n<span class=\"grvsc-line\"><span class=\"grvsc-source\">Trainable params: 138,357,544</span></span>\n<span class=\"grvsc-line\"><span class=\"grvsc-sou
…
t shape param permalink\" class=\"toc-header before\"><svg aria-hidden=\"true\" focusable=\"false\" height=\"16\" version=\"1.1\" viewBox=\"0 0 16 16\" width=\"16\"><path fill-rule=\"evenodd\" d=\"M4 9h1v1H4c-1.5 0-3-1.69-3-3.5S2.55 3 4 3h4c1.45 0 3 1.69 3 3.5 0 1.41-.91 2.72-2 3.25V8.59c.58-.45 1-1.27 1-2.09C10 5.22 8.98 4 8 4H4c-.98 0-2 1.22-2 2.5S3 9 4 9zm9-3h-1v1h1c1 0 2 1.22 2 2.5S13.98 12 13 12H9c-.98 0-2-1.22-2-2.5 0-.83.42-1.64 1-2.09V6.25c-1.09.53-2 1.84-2 3.25C6 11.31 7.55 13 9 13h4c1.45 0 3-1.69 3-3.5S14.5 6 13 6z\"></path></svg></a>Layer (type) Output Shape Param</h1>\n<p>Conv2d-1 [-1, 64, 224, 224] 1,792\nReLU-2 [-1, 64, 224, 224] 0\nConv2d-3 [-1, 64, 224, 224] 36,928\nReLU-4 [-1, 64, 224, 224] 0\nMaxPool2d-5 [-1, 64, 112, 112] 0\nConv2d-6 [-1, 128, 112, 112] 73,856\nReLU-7 [-1, 128, 112, 112] 0\nConv2d-8 [-1, 128, 112, 112] 147,584\nReLU-9 [-1, 128, 112, 112] 0\nMaxPool2d-10 [-1, 128, 56, 56] 0\nConv2d-11 [-1, 256, 56, 56] 295,168\nReLU-12 [-1, 256, 56, 56] 0\nConv2d-13 [-1, 256, 56, 56] 590,080\nReLU-14 [-1, 256, 56, 56] 0\nConv2d-15 [-1, 256, 56, 56] 590,080\nReLU-16 [-1, 256, 56, 56] 0\nMaxPool2d-17 [-1, 256, 28, 28] 0\nConv2d-18 [-1, 512, 28, 28] 1,180,160\nReLU-19 [-1, 512, 28, 28] 0\nConv2d-20 [-1, 512, 28, 28] 2,359,808\nReLU-21 [-1, 512, 28, 28] 0\nConv2d-22 [-1, 512, 28, 28] 2,359,808\nReLU-23 [-1, 512, 28, 28] 0\nMaxPool2d-24 [-1, 512, 14, 14] 0\nConv2d-25 [-1, 512, 14, 14] 2,359,808\nReLU-26 [-1, 512, 14, 14] 0\nConv2d-27 [-1, 512, 14, 14] 2,359,808\nReLU-28 [-1, 512, 14, 14] 0\nConv2d-29 [-1, 512, 14, 14] 2,359,808\nReLU-30 [-1, 512, 14, 14] 0\nMaxPool2d-31 [-1, 512, 7, 7] 0\nAdaptiveAvgPool2d-32 [-1, 512, 7, 7] 0\nLinear-33 [-1, 4096] 102,764,544\nReLU-34 [-1, 4096] 0\nDropout-35 [-1, 4096] 0\nLinear-36 [-1, 4096] 16,781,312\nReLU-37 [-1, 4096] 0\nDropout-38 [-1, 4096] 0\nLinear-39 [-1, 1000] 4,097,000\n================================================================\nTotal params: 138,357,544\nTrainable params: 138,357,544\nNon-trainable params: 0</p>\n<hr>\n<p>Input size (MB): 0.57\nForward/backward pass size (MB): 218.78\nParams size (MB): 527.79\nEstimated Total Size (MB): 747.15</p>\n<hr>\n<p>None</p>\n<pre class=\"grvsc-container one-dark-pro\" data-language=\"python\" data-index=\"4\"><c
…
